__________________________________________________________________________________________________
Layer (type)                    Output Shape         Param #     Connected to
==================================================================================================
input_1 (InputLayer)            (None, 256, 256, 1)  0
__________________________________________________________________________________________________
conv2d (Conv2D)                 (None, 256, 256, 16) 160         input_1[0][0]
__________________________________________________________________________________________________
batch_normalization (BatchNorma (None, 256, 256, 16) 64          conv2d[0][0]
__________________________________________________________________________________________________
activation (Activation)         (None, 256, 256, 16) 0           batch_normalization[0][0]
__________________________________________________________________________________________________
conv2d_1 (Conv2D)               (None, 256, 256, 16) 2320        activation[0][0]
__________________________________________________________________________________________________
batch_normalization_1 (BatchNor (None, 256, 256, 16) 64          conv2d_1[0][0]
__________________________________________________________________________________________________
activation_1 (Activation)       (None, 256, 256, 16) 0           batch_normalization_1[0][0]
__________________________________________________________________________________________________
max_pooling2d (MaxPooling2D)    (None, 128, 128, 16) 0           activation_1[0][0]
__________________________________________________________________________________________________
dropout (Dropout)               (None, 128, 128, 16) 0           max_pooling2d[0][0]
__________________________________________________________________________________________________
conv2d_2 (Conv2D)               (None, 128, 128, 32) 4640        dropout[0][0]
__________________________________________________________________________________________________
batch_normalization_2 (BatchNor (None, 128, 128, 32) 128         conv2d_2[0][0]
__________________________________________________________________________________________________
activation_2 (Activation)       (None, 128, 128, 32) 0           batch_normalization_2[0][0]
__________________________________________________________________________________________________
conv2d_3 (Conv2D)               (None, 128, 128, 32) 9248        activation_2[0][0]
__________________________________________________________________________________________________
batch_normalization_3 (BatchNor (None, 128, 128, 32) 128         conv2d_3[0][0]
__________________________________________________________________________________________________
activation_3 (Activation)       (None, 128, 128, 32) 0           batch_normalization_3[0][0]
__________________________________________________________________________________________________
max_pooling2d_1 (MaxPooling2D)  (None, 64, 64, 32)   0           activation_3[0][0]
__________________________________________________________________________________________________
dropout_1 (Dropout)             (None, 64, 64, 32)   0           max_pooling2d_1[0][0]
__________________________________________________________________________________________________
conv2d_4 (Conv2D)               (None, 64, 64, 64)   18496       dropout_1[0][0]
__________________________________________________________________________________________________
batch_normalization_4 (BatchNor (None, 64, 64, 64)   256         conv2d_4[0][0]
__________________________________________________________________________________________________
activation_4 (Activation)       (None, 64, 64, 64)   0           batch_normalization_4[0][0]
__________________________________________________________________________________________________
conv2d_5 (Conv2D)               (None, 64, 64, 64)   36928       activation_4[0][0]
__________________________________________________________________________________________________
batch_normalization_5 (BatchNor (None, 64, 64, 64)   256         conv2d_5[0][0]
__________________________________________________________________________________________________
activation_5 (Activation)       (None, 64, 64, 64)   0           batch_normalization_5[0][0]
__________________________________________________________________________________________________
max_pooling2d_2 (MaxPooling2D)  (None, 32, 32, 64)   0           activation_5[0][0]
__________________________________________________________________________________________________
dropout_2 (Dropout)             (None, 32, 32, 64)   0           max_pooling2d_2[0][0]
__________________________________________________________________________________________________
conv2d_6 (Conv2D)               (None, 32, 32, 128)  73856       dropout_2[0][0]
__________________________________________________________________________________________________
batch_normalization_6 (BatchNor (None, 32, 32, 128)  512         conv2d_6[0][0]
__________________________________________________________________________________________________
activation_6 (Activation)       (None, 32, 32, 128)  0           batch_normalization_6[0][0]
__________________________________________________________________________________________________
conv2d_7 (Conv2D)               (None, 32, 32, 128)  147584      activation_6[0][0]
__________________________________________________________________________________________________
batch_normalization_7 (BatchNor (None, 32, 32, 128)  512         conv2d_7[0][0]
__________________________________________________________________________________________________
activation_7 (Activation)       (None, 32, 32, 128)  0           batch_normalization_7[0][0]
__________________________________________________________________________________________________
global_average_pooling2d (Globa (None, 128)          0           activation_7[0][0]
__________________________________________________________________________________________________
global_max_pooling2d (GlobalMax (None, 128)          0           activation_7[0][0]
__________________________________________________________________________________________________
reshape (Reshape)               (None, 1, 1, 128)    0           global_average_pooling2d[0][0]
__________________________________________________________________________________________________
reshape_1 (Reshape)             (None, 1, 1, 128)    0           global_max_pooling2d[0][0]
__________________________________________________________________________________________________
max_pooling2d_3 (MaxPooling2D)  (None, 16, 16, 128)  0           activation_7[0][0]
__________________________________________________________________________________________________
dense (Dense)                   (None, 1, 1, 16)     2064        reshape[0][0]
                                                                 reshape_1[0][0]
__________________________________________________________________________________________________
dropout_3 (Dropout)             (None, 16, 16, 128)  0           max_pooling2d_3[0][0]
__________________________________________________________________________________________________
dense_1 (Dense)                 (None, 1, 1, 128)    2176        dense[0][0]
                                                                 dense[1][0]
__________________________________________________________________________________________________
conv2d_8 (Conv2D)               (None, 16, 16, 256)  295168      dropout_3[0][0]
__________________________________________________________________________________________________
add (Add)                       (None, 1, 1, 128)    0           dense_1[0][0]
                                                                 dense_1[1][0]
__________________________________________________________________________________________________
batch_normalization_8 (BatchNor (None, 16, 16, 256)  1024        conv2d_8[0][0]
__________________________________________________________________________________________________
activation_10 (Activation)      (None, 1, 1, 128)    0           add[0][0]
__________________________________________________________________________________________________
activation_8 (Activation)       (None, 16, 16, 256)  0           batch_normalization_8[0][0]
__________________________________________________________________________________________________
multiply (Multiply)             (None, 32, 32, 128)  0           activation_7[0][0]
                                                                 activation_10[0][0]
__________________________________________________________________________________________________
conv2d_9 (Conv2D)               (None, 16, 16, 256)  590080      activation_8[0][0]
__________________________________________________________________________________________________
lambda (Lambda)                 (None, 32, 32, 1)    0           multiply[0][0]
__________________________________________________________________________________________________
lambda_1 (Lambda)               (None, 32, 32, 1)    0           multiply[0][0]
__________________________________________________________________________________________________
batch_normalization_9 (BatchNor (None, 16, 16, 256)  1024        conv2d_9[0][0]
__________________________________________________________________________________________________
concatenate (Concatenate)       (None, 32, 32, 2)    0           lambda[0][0]
                                                                 lambda_1[0][0]
__________________________________________________________________________________________________
activation_9 (Activation)       (None, 16, 16, 256)  0           batch_normalization_9[0][0]
__________________________________________________________________________________________________
conv2d_10 (Conv2D)              (None, 32, 32, 1)    98          concatenate[0][0]
__________________________________________________________________________________________________
global_average_pooling2d_1 (Glo (None, 64)           0           activation_5[0][0]
__________________________________________________________________________________________________
global_max_pooling2d_1 (GlobalM (None, 64)           0           activation_5[0][0]
__________________________________________________________________________________________________
conv2d_transpose (Conv2DTranspo (None, 32, 32, 128)  295040      activation_9[0][0]
__________________________________________________________________________________________________
multiply_1 (Multiply)           (None, 32, 32, 128)  0           multiply[0][0]
                                                                 conv2d_10[0][0]
__________________________________________________________________________________________________
reshape_2 (Reshape)             (None, 1, 1, 64)     0           global_average_pooling2d_1[0][0]
__________________________________________________________________________________________________
reshape_3 (Reshape)             (None, 1, 1, 64)     0           global_max_pooling2d_1[0][0]
__________________________________________________________________________________________________
concatenate_1 (Concatenate)     (None, 32, 32, 256)  0           conv2d_transpose[0][0]
                                                                 multiply_1[0][0]
__________________________________________________________________________________________________
dense_2 (Dense)                 (None, 1, 1, 8)      520         reshape_2[0][0]
                                                                 reshape_3[0][0]
__________________________________________________________________________________________________
dropout_4 (Dropout)             (None, 32, 32, 256)  0           concatenate_1[0][0]
__________________________________________________________________________________________________
dense_3 (Dense)                 (None, 1, 1, 64)     576         dense_2[0][0]
                                                                 dense_2[1][0]
__________________________________________________________________________________________________
conv2d_11 (Conv2D)              (None, 32, 32, 128)  295040      dropout_4[0][0]
__________________________________________________________________________________________________
add_1 (Add)                     (None, 1, 1, 64)     0           dense_3[0][0]
                                                                 dense_3[1][0]
__________________________________________________________________________________________________
batch_normalization_10 (BatchNo (None, 32, 32, 128)  512         conv2d_11[0][0]
__________________________________________________________________________________________________
activation_13 (Activation)      (None, 1, 1, 64)     0           add_1[0][0]
__________________________________________________________________________________________________
activation_11 (Activation)      (None, 32, 32, 128)  0           batch_normalization_10[0][0]
__________________________________________________________________________________________________
multiply_2 (Multiply)           (None, 64, 64, 64)   0           activation_5[0][0]
                                                                 activation_13[0][0]
__________________________________________________________________________________________________
conv2d_12 (Conv2D)              (None, 32, 32, 128)  147584      activation_11[0][0]
__________________________________________________________________________________________________
lambda_2 (Lambda)               (None, 64, 64, 1)    0           multiply_2[0][0]
__________________________________________________________________________________________________
lambda_3 (Lambda)               (None, 64, 64, 1)    0           multiply_2[0][0]
__________________________________________________________________________________________________
batch_normalization_11 (BatchNo (None, 32, 32, 128)  512         conv2d_12[0][0]
__________________________________________________________________________________________________
concatenate_2 (Concatenate)     (None, 64, 64, 2)    0           lambda_2[0][0]
                                                                 lambda_3[0][0]
__________________________________________________________________________________________________
activation_12 (Activation)      (None, 32, 32, 128)  0           batch_normalization_11[0][0]
__________________________________________________________________________________________________
conv2d_13 (Conv2D)              (None, 64, 64, 1)    98          concatenate_2[0][0]
__________________________________________________________________________________________________
global_average_pooling2d_2 (Glo (None, 32)           0           activation_3[0][0]
__________________________________________________________________________________________________
global_max_pooling2d_2 (GlobalM (None, 32)           0           activation_3[0][0]
__________________________________________________________________________________________________
conv2d_transpose_1 (Conv2DTrans (None, 64, 64, 64)   73792       activation_12[0][0]
__________________________________________________________________________________________________
multiply_3 (Multiply)           (None, 64, 64, 64)   0           multiply_2[0][0]
                                                                 conv2d_13[0][0]
__________________________________________________________________________________________________
reshape_4 (Reshape)             (None, 1, 1, 32)     0           global_average_pooling2d_2[0][0]
__________________________________________________________________________________________________
reshape_5 (Reshape)             (None, 1, 1, 32)     0           global_max_pooling2d_2[0][0]
__________________________________________________________________________________________________
concatenate_3 (Concatenate)     (None, 64, 64, 128)  0           conv2d_transpose_1[0][0]
                                                                 multiply_3[0][0]
__________________________________________________________________________________________________
dense_4 (Dense)                 (None, 1, 1, 4)      132         reshape_4[0][0]
                                                                 reshape_5[0][0]
__________________________________________________________________________________________________
dropout_5 (Dropout)             (None, 64, 64, 128)  0           concatenate_3[0][0]
__________________________________________________________________________________________________
dense_5 (Dense)                 (None, 1, 1, 32)     160         dense_4[0][0]
                                                                 dense_4[1][0]
__________________________________________________________________________________________________
conv2d_14 (Conv2D)              (None, 64, 64, 64)   73792       dropout_5[0][0]
__________________________________________________________________________________________________
add_2 (Add)                     (None, 1, 1, 32)     0           dense_5[0][0]
                                                                 dense_5[1][0]
__________________________________________________________________________________________________
batch_normalization_12 (BatchNo (None, 64, 64, 64)   256         conv2d_14[0][0]
__________________________________________________________________________________________________
activation_16 (Activation)      (None, 1, 1, 32)     0           add_2[0][0]
__________________________________________________________________________________________________
activation_14 (Activation)      (None, 64, 64, 64)   0           batch_normalization_12[0][0]
__________________________________________________________________________________________________
multiply_4 (Multiply)           (None, 128, 128, 32) 0           activation_3[0][0]
                                                                 activation_16[0][0]
__________________________________________________________________________________________________
conv2d_15 (Conv2D)              (None, 64, 64, 64)   36928       activation_14[0][0]
__________________________________________________________________________________________________
lambda_4 (Lambda)               (None, 128, 128, 1)  0           multiply_4[0][0]
__________________________________________________________________________________________________
lambda_5 (Lambda)               (None, 128, 128, 1)  0           multiply_4[0][0]
__________________________________________________________________________________________________
batch_normalization_13 (BatchNo (None, 64, 64, 64)   256         conv2d_15[0][0]
__________________________________________________________________________________________________
concatenate_4 (Concatenate)     (None, 128, 128, 2)  0           lambda_4[0][0]
                                                                 lambda_5[0][0]
__________________________________________________________________________________________________
activation_15 (Activation)      (None, 64, 64, 64)   0           batch_normalization_13[0][0]
__________________________________________________________________________________________________
conv2d_16 (Conv2D)              (None, 128, 128, 1)  98          concatenate_4[0][0]
__________________________________________________________________________________________________
global_average_pooling2d_3 (Glo (None, 16)           0           activation_1[0][0]
__________________________________________________________________________________________________
global_max_pooling2d_3 (GlobalM (None, 16)           0           activation_1[0][0]
__________________________________________________________________________________________________
conv2d_transpose_2 (Conv2DTrans (None, 128, 128, 32) 18464       activation_15[0][0]
__________________________________________________________________________________________________
multiply_5 (Multiply)           (None, 128, 128, 32) 0           multiply_4[0][0]
                                                                 conv2d_16[0][0]
__________________________________________________________________________________________________
reshape_6 (Reshape)             (None, 1, 1, 16)     0           global_average_pooling2d_3[0][0]
__________________________________________________________________________________________________
reshape_7 (Reshape)             (None, 1, 1, 16)     0           global_max_pooling2d_3[0][0]
__________________________________________________________________________________________________
concatenate_5 (Concatenate)     (None, 128, 128, 64) 0           conv2d_transpose_2[0][0]
                                                                 multiply_5[0][0]
__________________________________________________________________________________________________
dense_6 (Dense)                 (None, 1, 1, 2)      34          reshape_6[0][0]
                                                                 reshape_7[0][0]
__________________________________________________________________________________________________
dropout_6 (Dropout)             (None, 128, 128, 64) 0           concatenate_5[0][0]
__________________________________________________________________________________________________
dense_7 (Dense)                 (None, 1, 1, 16)     48          dense_6[0][0]
                                                                 dense_6[1][0]
__________________________________________________________________________________________________
conv2d_17 (Conv2D)              (None, 128, 128, 32) 18464       dropout_6[0][0]
__________________________________________________________________________________________________
add_3 (Add)                     (None, 1, 1, 16)     0           dense_7[0][0]
                                                                 dense_7[1][0]
__________________________________________________________________________________________________
batch_normalization_14 (BatchNo (None, 128, 128, 32) 128         conv2d_17[0][0]
__________________________________________________________________________________________________
activation_19 (Activation)      (None, 1, 1, 16)     0           add_3[0][0]
__________________________________________________________________________________________________
activation_17 (Activation)      (None, 128, 128, 32) 0           batch_normalization_14[0][0]
__________________________________________________________________________________________________
multiply_6 (Multiply)           (None, 256, 256, 16) 0           activation_1[0][0]
                                                                 activation_19[0][0]
__________________________________________________________________________________________________
conv2d_18 (Conv2D)              (None, 128, 128, 32) 9248        activation_17[0][0]
__________________________________________________________________________________________________
lambda_6 (Lambda)               (None, 256, 256, 1)  0           multiply_6[0][0]
__________________________________________________________________________________________________
lambda_7 (Lambda)               (None, 256, 256, 1)  0           multiply_6[0][0]
__________________________________________________________________________________________________
batch_normalization_15 (BatchNo (None, 128, 128, 32) 128         conv2d_18[0][0]
__________________________________________________________________________________________________
concatenate_6 (Concatenate)     (None, 256, 256, 2)  0           lambda_6[0][0]
                                                                 lambda_7[0][0]
__________________________________________________________________________________________________
activation_18 (Activation)      (None, 128, 128, 32) 0           batch_normalization_15[0][0]
__________________________________________________________________________________________________
conv2d_19 (Conv2D)              (None, 256, 256, 1)  98          concatenate_6[0][0]
__________________________________________________________________________________________________
conv2d_transpose_3 (Conv2DTrans (None, 256, 256, 16) 4624        activation_18[0][0]
__________________________________________________________________________________________________
multiply_7 (Multiply)           (None, 256, 256, 16) 0           multiply_6[0][0]
                                                                 conv2d_19[0][0]
__________________________________________________________________________________________________
concatenate_7 (Concatenate)     (None, 256, 256, 32) 0           conv2d_transpose_3[0][0]
                                                                 multiply_7[0][0]
__________________________________________________________________________________________________
dropout_7 (Dropout)             (None, 256, 256, 32) 0           concatenate_7[0][0]
__________________________________________________________________________________________________
conv2d_20 (Conv2D)              (None, 256, 256, 16) 4624        dropout_7[0][0]
__________________________________________________________________________________________________
batch_normalization_16 (BatchNo (None, 256, 256, 16) 64          conv2d_20[0][0]
__________________________________________________________________________________________________
activation_20 (Activation)      (None, 256, 256, 16) 0           batch_normalization_16[0][0]
__________________________________________________________________________________________________
conv2d_21 (Conv2D)              (None, 256, 256, 16) 2320        activation_20[0][0]
__________________________________________________________________________________________________
batch_normalization_17 (BatchNo (None, 256, 256, 16) 64          conv2d_21[0][0]
__________________________________________________________________________________________________
activation_21 (Activation)      (None, 256, 256, 16) 0           batch_normalization_17[0][0]
__________________________________________________________________________________________________
conv2d_22 (Conv2D)              (None, 256, 256, 1)  17          activation_21[0][0]
==================================================================================================
Total params: 2,170,407
Trainable params: 2,167,463
Non-trainable params: 2,944
__________________________________________________________________________________________________
Train on 2610 samples, validate on 290 samples
Epoch 1/101
 - 200s - loss: 0.0169 - metric_fun: 0.0083 - val_loss: 0.0075 - val_metric_fun: 0.0082
…
